…
yer). For example, the first layer has (784+1)x256=200960 parameters; the 2nd layer has (256+1)x128=32896 parameters. Please note, dropout only randomly drop certain proportion of parameters for each batch, it will not reduce the number of parameters in the model. The total number of parameters for the dnn_model we just defined has 242762 parameters to be estimated. summary(dnn_model) ________________________________________________________________________________ Layer (type) Output Shape Param # ================================================================================ dense_1 (Dense) (None, 256) 200960 ________________________________________________________________________________ dropout_1 (Dropout) (None, 256) 0 ________________________________________________________________________________ dense_2 (Dense) (None, 128) 32896 ________________________________________________________________________________ dropout_2 (Dropout) (None, 128) 0 ________________________________________________________________________________ dense_3 (Dense) (None, 64) 8256 ________________________________________________________________________________ dropout_3 (Dropout) (None, 64) 0 ________________________________________________________________________________ dense_4 (Dense) (None, 10) 650 ================================================================================ Total params: 242,762 Trainable params: 242,762 Non-trainable params: 0 ________________________________________________________________________________ Once a model is defined, we need to compile the model with a few other hyper-parameters including (1) loss function, (2) optimizer, and (3) performance metrics. For 
…
